# YOLOv8 🚀 by Ultralytics, GPL-3.0 license

# Parameters
nc: 80  # number of classes
anchors: [[16,19], [55,65], [178,192]]
scales:  # [model, depth, width]
  ['yolov8m', 0.67, 0.75]

# YOLOv8 backbone
backbone:
  # [from, number, module, args]
  [[-1, 1, Conv, [64, 3, 2]],  # 0-P1/2
   [-1, 1, Conv, [128, 3, 2]],  # 1-P2/4
   [-1, 3, C2f, [128, True]],
   [-1, 1, Conv, [256, 3, 2]],  # 3-P3/8
   [-1, 6, C2f, [256, True]],
   [-1, 1, Conv, [512, 3, 2]],  # 5-P4/16
   [-1, 6, C2f, [512, True]],
   [-1, 1, Conv, [1024, 3, 2]],  # 7-P5/32
   [-1, 3, C2f, [1024, True]],
   [-1, 1, SPPF, [1024, 5]],  # 9
  ]

# YOLOv8  head
neck:
  [[-1, 1, nn.Upsample, [None, 2, 'nearest']],
   [[-1, 6], 1, Concat, [1]],  # cat backbone P4
   [-1, 3, C2f, [512]],  # 12

   [-1, 1, nn.Upsample, [None, 2, 'nearest']],
   [[-1, 4], 1, Concat, [1]],  # cat backbone P3
   [-1, 3, C2f, [256]],  # 15 (P3/8-small)

   [-1, 1, Conv, [256, 3, 2]],
   [[-1, 12], 1, Concat, [1]],  # cat head P4
   [-1, 3, C2f, [512]],  # 18 (P4/16-medium)

   [-1, 1, Conv, [512, 3, 2]],
   [[-1, 9], 1, Concat, [1]],  # cat head P5
   [-1, 3, C2f, [1024]],  # 21 (P5/32-large)
  ]

head:
  [[[15, 18, 21], 1, Detects, [nc]]]
